model/keypoint_classifier/keypoint_classifier.tflite (tflite, 6496 bytes, 6 tensors)

arith.constant f4 [5, 16]
0	0x3f075653	0.52866095
1	0x3e04beb5	0.12963374
2	0x3f04fe66	0.5195068
3	0xbf451ffa	-0.7700192
4	0x3e876320	0.26442814
5	0xbf3376e8	-0.7010331
6	0x3ef42ca4	0.47690308
7	0x3e3338c0	0.17502117
8	0xbf83d5e7	-1.0299653
9	0xbf054e55	-0.5207265
10	0xbf2efa43	-0.6835062
11	0x3f1161bf	0.56789774
12	0x3eb0a630	0.3450179
13	0xbf2a2ea7	-0.66477436
14	0x3f12ca00	0.5733948
15	0xbf3b3960	-0.7313442
16	0xbf053d36	-0.52046525
17	0xbf29474e	-0.6612443
18	0xbf5b89dc	-0.8575723
19	0x3e4d3c37	0.20042501
20	0x3ef09e2d	0.4699568
21	0xbf056c9b	-0.52118844
22	0x3f0a1254	0.53934216
23	0xbf200e42	-0.62521756
24	0x3e8dbdf3	0.27683982
25	0x3ee5a9aa	0.44856006
26	0x3eadf0c4	0.33972752
27	0x3ef24452	0.4731775
28	0xbea0f6ea	-0.3143838
29	0x3e99a722	0.30010325
30	0xbeebdfb3	-0.46069106
31	0xbf1f17ae	-0.6214551
32	0x3e2eef89	0.17083563
33	0xbf5c0341	-0.85942465
34	0x3eccc8e4	0.39997017
35	0x3e3c92b6	0.18415341
36	0xbe1f7121	-0.15570499
37	0xbecbe065	-0.39819637
38	0xbe42e919	-0.19034232
39	0x3e14c614	0.14528686
40	0x3e61f2bf	0.22065257
41	0xbf05c790	-0.52257633
42	0x3e9d1e89	0.3068736
43	0xbf36b8e9	-0.713759
44	0xbe988153	-0.29786167
45	0x3f29d92f	0.6634702
46	0xbf86bdcc	-1.0526671
47	0x3e9f7195	0.31141344
48	0x3f0a5a59	0.5404411
49	0x3d6d93e0	0.058002353
50	0x3f03a5b5	0.51424724
51	0xbf478e78	-0.77951765
52	0x3efe86d0	0.4971223
53	0x3f1e5586	0.6184925
54	0xbe4e8c3c	-0.20170683
55	0x3e95c035	0.29248205
56	0xbf420475	-0.7578805
57	0x3c1ac507	0.009446389
58	0x3d93eb11	0.0722257
59	0xbe0bf247	-0.1366664
60	0x3f3098e8	0.68983316
61	0xbf427f9c	-0.75975966
62	0xbf0ed33b	-0.5579106
63	0x3eec12dd	0.46108142
64	0xbf4d2ca3	-0.80146235
65	0xbf6fc1cd	-0.9365509
66	0xbe4fba9c	-0.2028603
67	0xbef42fc9	-0.47692707
68	0xbf316f07	-0.6931004
69	0x3f20560e	0.6263131
70	0xbf100929	-0.5626398
71	0xbf56c1f8	-0.8388972
72	0x3e89fb15	0.26949373
73	0x3f21a80e	0.63147056
74	0x3ead4df2	0.3384853
75	0xbe8d7bf9	-0.27633646
76	0x3f15532d	0.5833004
77	0xbeb51aab	-0.3537191
78	0xbf0a90d7	-0.5412726
79	0x3f03607c	0.513191

arith.constant1 f4 [16, 32]
0	0x3d963f51	0.073362954
1	0x3e40c1a1	0.18823864
2	0xbd690e75	-0.056898553
3	0xbde59d7e	-0.1121168
4	0xbe0c1873	-0.13681202
5	0xbe189b5f	-0.1490302
6	0x3ed45c12	0.41476494
7	0xbeacadf1	-0.33726457
8	0xbea6b337	-0.32558605
9	0xbdc8e52d	-0.09809337
10	0x3f1d1756	0.6136373
11	0x3d6cd634	0.057821468
12	0x3f3dc1d5	0.7412389
13	0x3e3688f7	0.17825685
14	0x3e00bc49	0.12571825
15	0x3e6695b7	0.22518049
16	0x3dff92b2	0.12479152
17	0x3df35b36	0.118826315
18	0x3d7b65ee	0.061376505
19	0x3f0f6e0d	0.560273
20	0xbe8f41f6	-0.27980012
21	0x3f0ac779	0.5421062
22	0xbcff43ec	-0.031160317
23	0xbc57c3ec	-0.01316927
24	0xbf01288a	-0.5045248
25	0xbe6e3029	-0.23260559
26	0x3e5a3d28	0.21312392
27	0x3ee29fbf	0.44262502
28	0x3d31169c	0.043234453
29	0x3e5b2659	0.21401347
30	0x3dbdae12	0.09261717
31	0xbc745fd8	-0.014915429
32	0xbcd0ff1f	-0.025512276
33	0x3e78b656	0.24288306
34	0xbde6c9ac	-0.112689346
35	0xbd31371a	-0.04326544
36	0xbda7b5b3	-0.08188953
37	0xbe418554	-0.18898517
38	0xbe6241de	-0.22095439
39	0x3d49b665	0.04924621
40	0xbe64b25a	-0.2233366
41	0x3e878860	0.26471233
42	0x3f014fe0	0.50512505
43	0xbddfd464	-0.10929182
44	0x3f452e57	0.77023834
45	0x3f07e697	0.5308623
46	0xbeb0ef99	-0.34557799
47	0x3dbf5dfc	0.09344098
48	0x3f183a5a	0.5946404
49	0x3ec0b591	0.37638524
50	0x3e94da92	0.29073006
51	0x3f2a255f	0.66463274
52	0xbdf8c9db	-0.12147876
53	0x3ea86332	0.3288818
54	0xbe10355d	-0.14082856
55	0x3e046c4a	0.12931934
56	0xbf04455f	-0.5166835
57	0xbe07e705	-0.1327172
58	0xbcde3a57	-0.027127428
59	0x3e83eeeb	0.25768217
60	0xbe024f37	-0.1272553
61	0xbb6f321a	-0.0036498369
62	0xbf1c0dc2	-0.6095849
63	0xbd0c30e3	-0.03422631
64	0xbd2a12cb	-0.04152183
65	0x3dc796e1	0.09745575
66	0xbe7b3c8b	-0.24534814
67	0xbebc5d42	-0.367899
68	0xbd6e1274	-0.058123067
69	0xbed0c964	-0.4077865
70	0x3e4ccad8	0.19999254
71	0xbe80b525	-0.25138202
72	0xbebcdadb	-0.36885723
73	0xbe1a33f2	-0.15058878
74	0x3e7e0ec7	0.24810325
75	0x3e7af81e	0.24508712
76	0x3f556120	0.83351326
77	0xbe1a4502	-0.15065387
78	0x3c12834a	0.008942435
79	0x3e78f15c	0.24310821
80	0x3ebcdda3	0.36887845
81	0x3e676786	0.22598085
82	0x3ee7960a	0.45231658
83	0x3e860766	0.2617752
84	0x3e712a74	0.23551351
85	0x3f060b6c	0.5236118
86	0xba02db72	-0.00049918063
87	0xbe067e4f	-0.1313412
88	0xbf1d7391	-0.61504465
89	0xbeb8546e	-0.36001915
90	0x3baf55e0	0.0053508133
91	0x3e344b4b	0.17606847
92	0xbedacbca	-0.42733604
93	0x3e737cc5	0.23778065
94	0xbdd59a18	-0.10429782
95	0x3e332a83	0.17496686
96	0x3f138a30	0.5763273
97	0x3d51bb8a	0.05120424
98	0x3c88f5ee	0.01671883
99	0x3e3744a5	0.1789728
100	0x3e86f058	0.26355243
101	0xbe9bfe54	-0.30467474
102	0x3f4f72c2	0.8103448
103	0x3d0f6abf	0.03501391
104	0x3efdb7fc	0.4955443
105	0xbed6d97f	-0.4196281
106	0xbf15c12d	-0.5849789
107	0x3e9267ed	0.28594914
108	0xbe9f911b	-0.31165394
109	0xbd860114	-0.065431744
110	0x3f419dfc	0.7563169
111	0x3da56164	0.080752164
112	0xbcf9e4d6	-0.030504625
113	0xbe17fa60	-0.14841604
114	0xbe1918ec	-0.14950913
115	0xbe456833	-0.1927803
116	0x3f49f363	0.78887004
117	0xbd3b649e	-0.045750253
118	0x3f25994e	0.6468705
119	0xbe514571	-0.20436646
120	0xbe106448	-0.14100754
121	0x3d5cbf64	0.05389346
122	0x3e8797cd	0.26483002
123	0xbdd620a7	-0.10455447
124	0xbe926623	-0.2859355
125	0xbe5d77ba	-0.21627703
126	0x3ea3858e	0.31937832
127	0xbe0efed3	-0.13964395
128	0xbccfad97	-0.025351329
129	0x3b8096e5	0.003924238
130	0x3e035bfe	0.12828061
131	0x3eae8756	0.34087628
132	0xbd546876	-0.051857434
133	0x3d390437	0.045170035
134	0x3d4c0c1f	0.049816247
135	0x3c4c0d7a	0.012454385
136	0x3eee1a7c	0.4650458
137	0xbed9e83c	-0.42559993
138	0x3e7478af	0.23874162
139	0xbd6e2393	-0.058139395
140	0xbe1dc6ba	-0.1540784
141	0x3f3161d5	0.69289905
142	0x3e3a59c1	0.18198301
143	0x3e6fa242	0.2340174
144	0xbd93ddaf	-0.07220017
145	0xbd6f962a	-0.058492817
146	0xbe261bc0	-0.16221523
147	0x3f178663	0.5918943
148	0x3ed92828	0.4241345
149	0x3e04aa9e	0.1295571
150	0xbd536f1d	-0.051619638
151	0xbe019328	-0.12653792
152	0xbda904ad	-0.08252845
153	0x3edafdb4	0.42771685
154	0x3e98b329	0.29824188
155	0x3e719225	0.23590906
156	0x3e06afa8	0.13152945
157	0x3f327eed	0.69724923
158	0x3dc6af83	0.09701445
159	0xbd3fba05	-0.04680826
160	0xbee570f2	-0.44812733
161	0xbe60026e	-0.21875927
162	0x3eba76d1	0.36418775
163	0x3d91fb1b	0.07127973
164	0x3e2ee1c3	0.17078309
165	0x3ec98e47	0.39366361
166	0xbf12eb9a	-0.5739075
167	0xbeb1b8eb	-0.34711394
168	0xbd9741eb	-0.0738562
169	0xbea761fd	-0.32691947
170	0x3dd741bc	0.10510585
171	0x3e1c2cef	0.15251516
172	0x3eb87dab	0.36033377
173	0xbdc1f83e	-0.094711766
174	0xbe1ea6d4	-0.15493327
175	0xbe4ae55a	-0.19814053
176	0xbd3de0d8	-0.046357006
177	0xbe81b5b5	-0.25333944
178	0x3f084dcd	0.53243715
179	0xbce05500	-0.027384281
180	0xbf0f4de0	-0.559782
181	0x3e0c98b7	0.13730131
182	0xbd938d44	-0.07204679
183	0x3ea67c0d	0.32516518
184	0x3e151e29	0.14562286
185	0xbe1601b5	-0.14649089
186	0xbeabe6a2	-0.33574396
187	0x3ecc30ae	0.3988089
188	0x3eeb86da	0.4600132
189	0x3f544aca	0.8292662
190	0x3cb0172f	0.02149543
191	0x3ef899d7	0.4855487
192	0x3c18843c	0.009308871
193	0x3eb2b1a6	0.3490116
194	0xbe02f5de	-0.12789103
195	0x3e63211b	0.22180597
196	0x3dba1afb	0.09087177
197	0x3dd4bf49	0.10388047
198	0x3ec4f774	0.38470042
199	0x3f4d479c	0.8018739
200	0x3de2d97e	0.110766396
201	0x3ebaca01	0.36482242
202	0xbdbc652d	-0.09198985
203	0xbe949a46	-0.2902395
204	0x3e13f395	0.14448388
205	0x3e5ca8b6	0.21548733
206	0x3e5ebcb8	0.21751678
207	0x3f1e26dd	0.6177805
208	0x3f180e61	0.5939694
209	0x3f109434	0.5647614
210	0xbecfd2f7	-0.4059064
211	0xbe2d1a95	-0.16904671
212	0x3e0dc0fc	0.13843149
213	0xbdd3add1	-0.10335887
214	0xbdd6ac04	-0.10482028
215	0xbedbd31b	-0.42934498
216	0x3dbdd26a	0.09268649
217	0x3f3cbbba	0.7372395
218	0xbe24f27b	-0.16108124
219	0xbe05805f	-0.13037251
220	0x3e4393f5	0.1909941
221	0xbeb7c6f0	-0.35893965
222	0x3e621fb1	0.22082402
223	0xbe5a5d58	-0.2132467
224	0x3e8b19c4	0.27168095
225	0xbe9ed24b	-0.31019816
226	0xbdcab777	-0.098982744
227	0xbec635b5	-0.3871285
228	0xbd5dfb34	-0.054194644
229	0xbe915d4b	-0.2839149
230	0x3e99fe59	0.30076864
231	0xbe24ad59	-0.16081752
232	0xbe58cbe6	-0.21171531
233	0xbe924a9e	-0.28572553
234	0x3f12a351	0.5728045
235	0x3e3b8c8d	0.18315335
236	0x3f1dd5e7	0.61654514
237	0x3edc27ec	0.42999208
238	0x3e6f2642	0.23354438
239	0xbdfea2b5	-0.12433378
240	0xbd70ef22	-0.058821805
241	0xbdeb7c34	-0.11498299
242	0x3d7c6526	0.0616199
243	0x3f34999e	0.705469
244	0x3dc9f4a3	0.09861114
245	0x3efab7a5	0.48968235
246	0xbd2efb7e	-0.04272031
247	0x3d1e0757	0.03858122
248	0xbed3a06b	-0.41333327
249	0x3d5385d4	0.0516413
250	0x3e3cb620	0.1842885
251	0x3ecaedd5	0.39634576
252	0xbe5a16a1	-0.21297695
253	0x3ecfe459	0.40603903
254	0xbdac63d8	-0.08417481
255	0x3a5fdbab	0.0008539508

arith.constant2 f4 [5]
0	0x3d6a4ec4	0.057204023
1	0x3cb2620f	0.021775274
2	0x3e847cdb	0.25876507
3	0xbef85d7e	-0.4850883
4	0x3e3423d2	0.1759179

sequential_1/dense_1_2/BiasAdd/ReadVariableOp f4 [16]
0	0x3d8ac9f6	0.06776802
1	0x3da68788	0.08131319
2	0x3e994538	0.29935622
3	0xbc70c377	-0.01469504
4	0xbe3af9f6	-0.18259415
5	0xbdea78da	-0.11448832
6	0x3d813b5f	0.06310152
7	0x3dbb581a	0.091476634
8	0x3ea2db7f	0.31808087
9	0xbd36b7cd	-0.04460888
10	0x3e780ff7	0.2422484
11	0x3daf2ef1	0.08553875
12	0xbda16dde	-0.07882284
13	0x3ea5270f	0.32256362
14	0x3e74e471	0.23915268
15	0x3e21887b	0.1577472

sequential_1/dense_1/BiasAdd/ReadVariableOp f4 [32]
0	0xbcc5a3fb	-0.024126044
1	0x3e658d8f	0.22417282
2	0xbdf448fa	-0.11927982
3	0xbdc21c68	-0.09478074
4	0x3e0a29ef	0.13492559
5	0xbd10314f	-0.035203274
6	0xbd948526	-0.072519585
7	0x3e2c5132	0.16827849
8	0x3d820d21	0.063501604
9	0xba80d4eb	-0.000982908
10	0xbe2314ce	-0.15925905
11	0xbde1c87a	-0.11024566
12	0xbdda4e7d	-0.10659502
13	0x3dd1493e	0.10219048
14	0xbd61c537	-0.05511972
15	0x3db8b72f	0.090193145
16	0x3da58263	0.0808151
17	0x3e365850	0.17807126
18	0xbe4f1ef5	-0.20226653
19	0xbd3c6a50	-0.045999825
20	0x3dccaec7	0.09994274
21	0xbe152799	-0.14565887
22	0x3dde72f9	0.10861773
23	0xbe2d64bc	-0.16932958
24	0xbd497256	-0.049181305
25	0x3dd47d07	0.103754096
26	0xbd947a94	-0.072499424
27	0xbe8feb40	-0.2810917
28	0x3d3b8f71	0.045791093
29	0xbe8d5a65	-0.27608028
30	0xbb99e212	-0.004696139
31	0xbdba245e	-0.09088968

sequential_1/dense_1/MatMul i1 [32, 42]
0	0xd5	-43
1	0x1b	27
2	0xdf	-33
3	0x22	34
4	0xff	-1
5	0x0e	14
6	0x1c	28
7	0x06	6
8	0x02	2
9	0x05	5
10	0x34	52
11	0x1b	27
12	0x23	35
13	0xfe	-2
14	0xf6	-10
15	0x16	22
16	0x03	3
17	0x11	17
18	0xfb	-5
19	0x0c	12
20	0xe7	-25
21	0xe9	-23
22	0xea	-22
23	0x10	16
24	0xc1	-63
25	0x81	-127
26	0xf1	-15
27	0x2b	43
28	0x10	16
29	0x14	20
30	0xf1	-15
31	0xeb	-21
32	0xe4	-28
33	0xcd	-51
34	0x02	2
35	0x12	18
36	0x10	16
37	0xff	-1
38	0x08	8
39	0x1d	29
40	0x19	25
41	0x1b	27
42	0xcb	-53
43	0xbb	-69
44	0x7f	127
45	0xd4	-44
46	0x7f	127
47	0x0a	10
48	0x7a	122
49	0x01	1
50	0x54	84
51	0xe3	-29
52	0xd1	-47
53	0xb5	-75
54	0xf3	-13
55	0x27	39
56	0x21	33
57	0xd0	-48
58	0xf8	-8
59	0xcb	-53
60	0x18	24
61	0xdf	-33
62	0x18	24
63	0xfd	-3
64	0xff	-1
65	0x16	22
66	0xf5	-11
67	0xfc	-4
68	0xfb	-5
69	0xca	-54
70	0x1b	27
71	0x43	67
72	0x0c	12
73	0x4d	77
74	0x1b	27
75	0x63	99
76	0xc0	-64
77	0x25	37
78	0x25	37
79	0x69	105
80	0x1d	29
81	0x75	117
82	0x0d	13
83	0x5e	94
84	0x20	32
85	0xf2	-14
86	0x6f	111
87	0x5a	90
88	0x0a	10
89	0x5e	94
90	0xeb	-21
91	0x3b	59
92	0xa5	-91
93	0x36	54
94	0x1f	31
95	0xeb	-21
96	0xed	-19
97	0x01	1
98	0x39	57
99	0xe3	-29
100	0x4f	79
101	0x81	-127
102	0xfd	-3
103	0xf6	-10
104	0xe8	-24
105	0xf8	-8
106	0x30	48
107	0x38	56
108	0x2e	46
109	0x0e	14
110	0xd4	-44
111	0xba	-70
112	0xca	-54
113	0xed	-19
114	0x2c	44
115	0x20	32
116	0x08	8
117	0x17	23
118	0x03	3
119	0xb5	-75
120	0x18	24
121	0xf4	-12
122	0x37	55
123	0xe5	-27
124	0x76	118
125	0x8b	-117
126	0x19	25
127	0xd9	-39
128	0xe2	-30
129	0x26	38
130	0xc1	-63
131	0x1b	27
132	0xd7	-41
133	0x1b	27
134	0xee	-18
135	0x1f	31
136	0x14	20
137	0x23	35
138	0x18	24
139	0x05	5
140	0x1d	29
141	0x02	2
142	0xd8	-40
143	0x81	-127
144	0xfa	-6
145	0x15	21
146	0xfd	-3
147	0x10	16
148	0xf3	-13
149	0xfe	-2
150	0xef	-17
151	0x04	4
152	0x18	24
153	0x09	9
154	0xfc	-4
155	0x0d	13
156	0x08	8
157	0xf1	-15
158	0x17	23
159	0x12	18
160	0x18	24
161	0x02	2
162	0xeb	-21
163	0x00	0
164	0xba	-70
165	0xfa	-6
166	0xf7	-9
167	0xec	-20
168	0xde	-34
169	0xc5	-59
170	0xf8	-8
171	0x7f	127
172	0xc0	-64
173	0x5a	90
174	0x0d	13
175	0x19	25
176	0x10	16
177	0x45	69
178	0xf6	-10
179	0x3a	58
180	0xf3	-13
181	0x03	3
182	0x20	32
183	0xb6	-74
184	0x18	24
185	0x90	-112
186	0xda	-38
187	0x25	37
188	0xd6	-42
189	0x15	21
190	0x54	84
191	0xef	-17
192	0x48	72
193	0xca	-54
194	0x40	64
195	0xf2	-14
196	0xf9	-7
197	0x38	56
198	0xf1	-15
199	0x0a	10
200	0x05	5
201	0xce	-50
202	0x11	17
203	0x9b	-101
204	0x10	16
205	0x1c	28
206	0x22	34
207	0xed	-19
208	0xf5	-11
209	0xdb	-37
210	0xf2	-14
211	0xd8	-40
212	0xde	-34
213	0x42	66
214	0xc1	-63
215	0x46	70
216	0xe0	-32
217	0x15	21
218	0x3f	63
219	0x2b	43
220	0x0e	14
221	0x13	19
222	0xd6	-42
223	0xdb	-37
224	0xa2	-94
225	0x0c	12
226	0x81	-127
227	0xf3	-13
228	0xee	-18
229	0x01	1
230	0xd7	-41
231	0xf7	-9
232	0xec	-20
233	0xfd	-3
234	0xdc	-36
235	0xfb	-5
236	0x26	38
237	0x0b	11
238	0x26	38
239	0xff	-1
240	0xfa	-6
241	0xe5	-27
242	0x1f	31
243	0x11	17
244	0xf4	-12
245	0x0a	10
246	0x34	52
247	0xfd	-3
248	0x24	36
249	0xe6	-26
250	0xf5	-11
251	0xdc	-36
252	0x06	6
253	0xf2	-14
254	0xfd	-3
255	0x03	3
